assets/models/model.tflite (tflite, 188784 bytes, 15 tensors)

arith.constant f4 [16]
-0.06644327 -0.09666661 -0.13724676 -0.0656781 -0.08623436 -0.06540619 -0.100425206 -0.049393605
0.08754362 0.14041655 -0.032502986 -0.11053232 -0.060246408 -0.04137421 -0.075756155 -0.16232978
00000000: 6913 88bd 25f9 c5bd 6a8a 0cbe 3d82 86bd
00000010: a49b b0bd aef3 85bd bbab cdbd f350 4abd
00000020: 124a b33d 5bc9 0f3e da21 05bd c55e e2bd
00000030: f0c4 76bd 0178 29bd 0b26 9bbd c739 26be

arith.constant1 f4 [16]
-0.022454256 -0.06996853 0.15339106 -0.08251366 -0.052805413 -0.044665135 -0.05845184 -0.015671343
-0.033377748 -0.041191217 0.08121435 -0.02253618 -0.042971514 -0.062086612 -0.07208468 -0.046827607
00000000: fdf1 b7bc a94b 8fbd 8c12 1d3e ecfc a8bd
00000010: 7d4a 58bd caf2 36bd 326b 6fbd 3061 80bc
00000020: 1bb7 08bd 1fb8 28bd b653 a63d cc9d b8bc
00000030: e602 30bd 884e 7ebd 22a1 93bd 4ece 3fbd

arith.constant2 f4 [32]
-0.011682874 0.033134893 -0.053991403 -0.104041375 -0.026227511 -0.08869814 -0.010590859 -0.040512297
-0.011162705 0.033285286 -0.04569205 -0.08019909 -0.040336676 0.03829016 -0.07045238 -0.08936781
-0.05155669 -0.026864668 -0.07576439 -0.021887181 -0.067491986 -0.08228344 -0.005844488 0.07725158
0.046412274 -0.07635731 0.010274123 -0.06437537 -0.05025956 -0.028097877 -0.03432074 0.08409718
00000000: 8669 3fbc 74b8 073d 1726 5dbd a513 d5bd
00000010: 14db d6bc 5fa7 b5bd 4885 2dbc 39f0 25bd
00000020: c7e3 36bc 2756 083d 9627 3bbd 6c3f a4bd
00000030: 1238 25bd 25d6 1c3d 5649 90bd 7806 b7bd
00000040: 1c2d 53bd 4b13 dcbc 5c2a 9bbd bf4c b3bc
00000050: 3d39 8abd 3884 a8bd 1e83 bfbb 1436 9e3d
00000060: cc1a 3e3d 3961 9cbd cc54 283c 3cd7 83bd
00000070: f8dc 4dbd 852d e6bc e793 0cbd 243b ac3d

arith.constant3 f4 [32]
-0.025548907 -0.023863686 -0.011180236 -0.004945561 -0.00375349 0.04976619 -0.031993005 -0.042073183
-0.08171797 -0.007647186 0.026413506 0.011316585 -0.039074406 -0.011197523 0.039604466 -0.031437848
-0.0047764876 0.048483208 0.074549325 -0.036607247 -0.029956773 -0.0117914565 0.010570521 0.008763863
0.037664387 -0.028433979 -0.005533905 0.0035934462 0.0021543123 0.037652656 -0.025338741 0.007472905
00000000: f14b d1bc c77d c3bc 4f2d 37bc 5f0e a2bb
00000010: 1dfd 75bb a2d7 4b3d 190b 03bd ee54 2cbd
00000020: c05b a7bd 3f95 fabb 2361 d83c 3369 393c
00000030: 7c0c 20bd d175 37bc 4b38 223d f9c4 00bd
00000040: 1584 9cbb 5496 463d 51ad 983d 7bf1 15bd
00000050: e867 f5bc f430 41bc fa2f 2d3c 4e96 0f3c
00000060: f945 1a3d 60ee e8bc c255 b5bb 0680 6b3b
00000070: 5d2f 0d3b ac39 1a3d 3193 cfbc 45df f43b

arith.constant4 f4 [16, 3, 3, 16]
0.008407965 0.09491468 -0.032637 -0.19852512 0.12285367 0.04236281 -0.064291365 -0.17891566
-0.08594097 -0.13474618 -0.09526124 -0.008111423 -0.18959732 0.07497313 -0.018069379 -0.010296518
-0.07379437 -0.04079099 -0.054585874 -0.023119897 -0.115885094 0.12640478 0.0006221231 -0.026093222
-0.14031313 -0.053731874 -0.1381999 0.19892168 -0.028021883 -0.17075764 0.0591533 -0.10455618
0.06517927 0.047489166 -0.26589108 0.12118924 0.11229941 -0.10150985 0.107906826 -0.06469684
-0.11473447 -0.039531827 -0.043189198 -0.0094309645 -0.0054379813 -0.005529998 0.041911323 0.15324166
-0.12174758 -0.17807709 0.07707627 -0.05817734 0.054544486 -0.026838208 -0.10241999 0.02683111
0.04264924 -0.039993405 -0.14000551 0.13152671 -0.098422386 0.127665 -0.1349365 -0.10015108
-0.074679434 -0.13976672 0.08434817 0.13889882 -0.016054556 -0.06824265 0.058363143 0.008083843
0.10028438 -0.072884016 0.06203728 0.056991693 -0.10760982 -0.10547679 -0.1372668 0.13477613
0.11737179 0.047133088 -0.1309422 0.059789907 0.057698667 0.12768766 -0.10007601 -0.010008588
-0.11313775 -0.14005166 0.1579725 -0.0692551 -0.074902296 -0.15288717 0.02963153 0.010724139
-0.13427122 0.02883591 0.12511715 -0.049711235 0.017816307 -0.034073424 -0.06636922 0.07630716
-0.0912552 -0.092528574 -0.09192287 -0.057367377 0.10849583 0.15314661 -0.09448371 -0.12034753
-0.09283688 -0.033808716 0.26764777 0.043359768 -0.035564605 0.09565423 -0.04318123 0.12125844
0.022850826 -0.04619482 -0.02976355 -0.22819538 0.118508026 0.0066548605 -0.16148202 0.14783338
-0.04316385 0.011007212 -0.15726727 0.1096916 0.08376926 0.15992971 -0.059082612 0.10707237
0.0014591366 -0.114650264 0.13874316 -0.13169879 -0.064910956 -0.13380766 -0.053336807 -0.051591236
0.0416044 -0.09431293 -0.039117046 -0.1381962 0.041862298 0.00261702 -0.09528167 0.07182938
0.08341773 0.037129577 -0.21300946 0.16135505 0.10088145 0.07473936 0.024451582 -0.07537986
-0.070077345 0.09300585 -0.07781032 -0.0787976 0.069958135 0.13319434 0.09837194 -0.17236051
0.06061563 0.058636293 -0.187691 0.05349098 0.040924676 -0.14876768 0.056241553 -0.0018873276
0.07608448 -0.03664784 -0.2555596 -0.021111421 -0.039760187 -0.023667168 0.032943595 0.06537677
-0.0017730165 -0.09190261 0.035598725 0.009732083 -0.004243597 -0.12765281 0.0006865787 0.08487161
0.07684906 -0.16297609 0.22579908 0.1439627 0.13454914 0.027903726 0.019217744 -0.08028946
-0.0068897754 -0.008936022 -0.24913211 0.15635252 0.0056727366 -0.02367164 0.098236926 -0.20411377
-0.0033790618 0.035366163 0.04747729 -0.0109078465 0.11367852 -0.1648415 -0.15151207 0.012566708
-0.14390117 -0.10976785 0.071877845 0.042547625 0.09822739 -0.09778317 -0.082215905 0.19915615
0.09825297 0.012556964 -0.08642032 -0.046518736 -0.021352878 0.059601363 -0.1007557 0.034328036
0.052266613 0.14099681 0.14323945 -0.19795202 0.028541783 -0.06987902 -0.17049146 0.1007578
-0.04297723 0.027965266 0.054800924 -0.039853644 0.0010043675 0.0917723 -0.059454087 -0.070180535
-0.055108964 -0.059196 -0.046158995 -0.077001736 0.07524346 0.14291646 0.12958279 -0.16186516
00000000: 90c1 093c a162 c23d 60ae 05bd 2b4a 4bbe
00000010: b49a fb3d a084 2d3d 31ab 83bd ab35 37be
00000020: d201 b0bd e7fa 09be 5318 c3bd c6e5 04bc
00000030: cd25 42be 838b 993d 3c06 94bc bab2 28bc
00000040: 8121 97bd 7414 27bd 7095 5fbd f065 bdbc
00000050: 2a55 edbd 4170 013e f915 233a 74c1 d5bc
00000060: 3fae 0fbe f415 5cbd 4684 0dbe 20b2 4b3e
00000070: 268e e5bc 17db 2ebe bb4a 723d 8d21 d6bd
00000080: b67c 853d 0084 423d e022 88be 1032 f83d
00000090: 3cfd e53d 65e4 cfbd 41fe dc3d c77f 84bd
000000a0: e8f9 eabd 20ec 21bd 28e7 30bd 5584 1abc
000000b0: 1831 b2bb fc34 b5bb 35ab 2b3d 62eb 1c3e
000000c0: cc56 f9bd d759 36be 2ada 9d3d 5d4b 6ebd
000000d0: 0a6a 5f3d cddb dbbc 92c1 d1bd eacc db3c
000000e0: f8b0 2e3d 20d0 23bd 9b5d 0fbe f0ae 063e
000000f0: ad91 c9bd 9dba 023e cb2c 0abe 021c cdbd
00000100: 88f1 98bd 021f 0fbe bcbe ac3d 7e3b 0e3e
00000110: d884 83bc cdc2 8bbd 310e 6f3d 1872 043c
00000120: e661 cd3d 3744 95bd ce1a 7e3d 1f70 693d
00000130: 8a62 dcbd 3704 d8bd ab8f 0cbe c102 0a3e
00000140: 9f60 f03d a00e 413d b615 06be 43e6 743d
00000150: 7055 6c3d 8ec0 023e a7f4 ccbd 10fb 23bc
00000160: c4b4 e7bd b469 0fbe 8bc3 213e 9ed5 8dbd
00000170: 6066 99bd 748e 1cbe d3bd f23c 4db4 2f3c
00000180: 657e 09be 4939 ec3c b61e 003e 029e 4bbd
00000190: 81f3 913c 9390 0bbd 96ec 87bd ee46 9c3d
000001a0: 02e4 babd 9f7f bdbd 0f42 bcbd 0efa 6abd
000001b0: 1033 de3d 77d2 1c3e ad80 c1bd c478 f6bd
000001c0: 4321 bebd 027b 0abd 2109 893e 039a 313d
000001d0: 31ac 11bd 5de6 c33d cdde 30bd 5856 f83d
000001e0: a831 bb3c c836 3dbd b0d2 f3bc 0dac 69be
000001f0: 56b4 f23d 0411 da3b 8b5b 25be a261 173e
00000200: 94cc 30bd 9857 343c ac0a 21be fda5 e03d
00000210: 388f ab3d 9dc4 233e 9c00 72bd c248 db3d
00000220: 8040 bf3a c2cd eabd b012 0e3e 0cdc 06be
00000230: 09f0 84bd e004 09be b277 5abd 5551 53bd
00000240: 6069 2a3d 2327 c1bd 3239 20bd 4e83 0dbe
00000250: cd77 2b3d 4f82 2b3b 0923 c3bd 481b 933d
00000260: ead6 aa3d 2f15 183d 271f 5abe 423a 253e
00000270: ef9a ce3d f310 993d af4e c83c c260 9abd
00000280: b684 8fbd da79 be3d 045b 9fbd a360 a1bd
00000290: 3646 8f3d 1964 083e 3a77 c93d 467f 30be
000002a0: 1848 783d 9c2c 703d 1232 40be 5c19 5b3d
000002b0: a2a0 273d 8e56 18be 8b5d 663d 3560 f7ba
000002c0: 2ed2 9b3d 0c1c 16bd b5d8 82be dcf1 acbc
000002d0: 94db 22bd a6e1 c1bc ddef 063d 42e4 853d
000002e0: 9064 e8ba 7037 bcbd f8cf 113d 5173 1f3c
000002f0: df0d 8bbb 6bb7 02be 84fb 333a 2bd1 ad3d
00000300: 0a63 9d3d 34e3 26be e037 673e f56a 133e
00000310: 40c7 093e 5b96 e43c 886e 9d3c cd6e a4bd
00000320: a0c3 e1bb 6568 12bc 7d1c 7fbe e01a 203e
00000330: 5de2 b93b 07eb c1bc 7130 c93d 3303 51be
00000340: 4073 5dbb 1cdc 103d 8c77 423d d3b6 32bc
00000350: 49d0 e83d 36cc 28be fb25 1bbe 98e4 4d3c
00000360: d45a 13be f7cd e0bd b134 933d 6b46 2e3d
00000370: 712b c93d 8b42 c8bd d060 a8bd 97ef 4b3e
00000380: da38 c93d b9bb 4d3c 23fd b0bd 6e8a 3ebd
00000390: 3bec aebc 8f20 743d 0159 cebd 8e9b 0c3d
000003a0: 8415 563d 7861 103e 5dad 123e efb3 4abe
000003b0: 75d0 e93c bb1c 8fbd 5095 2ebe 1b5a ce3d
000003c0: e408 30bd 6a17 e53c ef76 603d 933d 23bd
000003d0: fba4 833a 1ef3 bb3d 2186 73bd d0ba 8fbd
000003e0: f0b9 61bd 8177 72bd 3711 3dbd 16b3 9dbd
000003f0: 3e19 9a3d b158 123e 5ab1 043e fbbf 25be

arith.constant5 f4 [16, 3, 3, 32]
-5.274398e-05 -0.040551037 -0.03615652 -0.066850886 -0.0709911 -0.04085378 0.006284885 0.085838445
0.11474199 0.0851469 -0.047332965 -0.07128535 -0.09676504 0.062597595 -0.07973594 0.00015953649
-0.011771441 0.018106677 -0.011589187 -0.0016483605 -0.10532857 -0.050641127 -0.059364595 -0.058260236
-0.13332634 -0.06343345 -0.06373987 -0.04312008 -0.09976536 -0.10107483 -0.09147575 0.06823929
0.07886202 0.052730147 -0.0020506158 0.04228399 -0.012190118 0.01913864 0.022469131 0.037682213
0.090462334 -0.096508615 0.017964818 -0.03140814 0.021833275 -0.042749964 0.10699213 -0.0941447
0.041352298 0.04792068 -0.08028938 0.05920337 -0.057172984 0.113996916 0.027080536 -0.07512876
-0.08328906 -0.06708624 -0.10413598 0.097327076 -0.089449026 -0.07499632 0.077017464 -0.05946302
-0.11494063 -0.05865518 0.08120065 0.052519552 -0.046800975 -0.0902203 0.05822387 0.03245908
-0.09827097 0.005203453 -0.011272989 -0.112146735 -0.0908035 -0.11996443 -0.06483316 -0.025676293
-0.066220224 -0.0791787 0.008487958 -0.02725609 0.047876857 0.025017016 0.063645944 0.0645014
0.009301825 -0.08559273 0.07182406 -0.024073355 -0.03345395 0.012937935 -0.0034183934 -0.049339265
0.062119395 -0.12958045 0.0553718 -0.062229738 0.055848435 -0.06724299 0.061316732 -0.035093036
-0.07425375 -0.026795043 -0.057507746 0.022951538 -0.109817296 -0.06873177 -0.10424578 0.0854576
-0.035608284 -0.043096557 0.10582928 -0.11555303 0.075836845 -0.034549735 -0.0006679089 -0.12147693
-0.005280791 -0.0640178 -0.07846611 0.027786233 0.027388774 0.09594519 -0.03790471 -0.011752098
0.019286184 -0.028676681 -0.01910512 -0.11180439 0.03248094 0.006862823 0.047151376 -0.0472003
0.015885182 -0.039703015 -0.09129962 0.051229224 -0.10959857 -0.10751681 -0.013123415 0.010242277
-0.09316419 0.0007398397 0.032506492 -0.013382667 -0.10749135 0.064399816 -0.0672059 0.0609441
-0.10313039 0.012333961 0.032564737 0.022655256 0.041342486 0.10166521 0.10546119 -0.07957781
0.05695593 -0.024283342 0.030196156 0.0068671554 -0.13111047 -0.0474026 -0.10761041 -0.049701463
-0.09445083 0.068811685 0.020882748 0.11181116 0.0059826057 -0.060811903 0.10238418 -0.07760736
-0.047953732 0.08130118 0.094273604 -0.0056183008 0.037562225 -0.11101145 -0.0050888415 -0.028708922
0.028947012 0.056029893 -0.120628245 -0.105803035 -0.024230331 -0.029714402 0.08106067 -0.10170926
0.045836713 -0.13286823 0.003416814 0.039107896 -0.096292265 0.055718888 0.069172084 -0.11306197
-0.10550969 -0.117975175 0.05168072 -0.046452757 -0.025397554 -0.08455562 -0.023392925 -0.014881687
0.04756511 -0.055968627 0.040718425 -0.11260356 -0.052345 0.010098107 -0.07309247 -0.1477086
-0.077608496 -0.041411094 0.094814725 -0.095804535 0.069532655 -0.10201803 -0.014507055 -0.014555338
-0.055401668 -0.13427685 -0.11302627 -0.11891309 -0.09255167 0.07744152 -0.09508466 0.037982464
0.032469623 -0.111669384 0.014702763 0.07582314 -0.041650962 -0.03294026 0.06611509 -0.03673298
-0.10575635 -0.07301919 -0.09099398 0.0033764988 -0.10325336 0.01974381 -0.012715399 -0.14097312
0.06718102 -0.10268212 0.06449743 -0.0056838393 0.03583291 -0.033089 -0.090673804 -0.1433352
00000000: 6b39 5db8 d818 26bd dc18 14bd 1ee9 88bd
00000010: c863 91bd 4b56 27bd 70f1 cd3b 11cc af3d
00000020: d9fd ea3d 7f61 ae3d 36e0 41bd 0efe 91bd
00000030: c02c c6bd 2b33 803d 994c a3bd 4049 2739
00000040: 01dd 40bc 7454 943c 93e0 3dbc cd0d d8ba
00000050: 81b6 d7bd 126d 4fbd 4a28 73bd 49a2 6ebd
00000060: b386 08be 66e9 81bd 0d8a 82bd ae9e 30bd
00000070: c851 ccbd 5200 cfbd a357 bbbd 0ac1 8b3d
00000080: 6982 a13d 91fb 573d a063 06bb fa31 2d3d
00000090: 10b9 47bc a3c8 9c3c 2f11 b83c aa58 1a3d
000000a0: 5144 b93d 4fa6 c5bd f42a 933c d2a5 00bd
000000b0: b2db b23c 961a 2fbd b11e db3d f0ce c0bd
000000c0: 0761 293d 7a48 443d c26e a4bd 3c7f 723d
000000d0: 382e 6abd 3777 e93d 00d8 dd3c 1bdd 99bd
000000e0: 7493 aabd 8364 89bd 3f45 d5bd 6b53 c73d
000000f0: 0d31 b7bd ac97 99bd 55bb 9d3d 7f8f 73bd
00000100: fe65 ebbd 6a40 70bd 874c a63d be1e 573d
00000110: 61b2 3fbd 6cc5 b8bd 277c 6e3d d0f3 043d
00000120: 4a42 c9bd ba81 aa3b 58b2 38bc 30ad e5bd
00000130: 2ff7 b9bd e9af f5bd 3fc7 84bd 1757 d2bc
00000140: 789e 87bd 7128 a2bd 1411 0b3c 2a48 dfbc
00000150: 861a 443d 7cf0 cc3c ce58 823d 4f19 843d
00000160: af66 183c 3e4b afbd 7e18 933d 7c35 c5bc
00000170: 0207 09bd a2f9 533c 2007 60bb f817 4abd
00000180: e870 7e3d bdb0 04be 8acd 623d 9ce4 7ebd
00000190: 54c1 643d b1b6 89bd 4127 7b3d b7bd 0fbd
000001a0: 5a12 98bd 4781 dbbc 3e8d 6bbd dd04 bc3c
000001b0: e4e7 e0bd 3ec3 8cbd d07e d5bd 6504 af3d
000001c0: fed9 11bd 0486 30bd 06bd d83d 11a7 ecbd
000001d0: 5950 9b3d 0684 0dbd 9c16 2fba e6c8 f8bd
000001e0: 7c0a adbb c41b 83bd d7b2 a0bd f49f e33c
000001f0: 6c5e e03c e97e c43d f841 1bbd df8b 40bc
00000200: 0ffe 9d3c 5ceb eabc 5782 9cbc b3f9 e4bd
00000210: bc0a 053d 88e1 e03b cd21 413d 1a55 41bd
00000220: a421 823c a19f 22bd 4cfb babd bcd5 513d
00000230: 3775 e0bd c631 dcbd 9803 57bc 39cf 273c
00000240: decc bebd cdf1 413a 8725 053d f942 5bbc
00000250: 6d24 dcbd 0de4 833d 3fa3 89bd 85a0 793d
00000260: 0736 d3bd 6214 4a3c 9a62 053d 8497 b93c
00000270: bd56 293d da35 d03d 09fc d73d b1f9 a2bd
00000280: 9f4a 693d dced c6bc ee5d f73c e005 e13b
00000290: d341 06be 3b29 42bd d962 dcbd c393 4bbd
000002a0: 706f c1bd 24ed 8c3d 4c12 ab3c 40fd e43d
000002b0: bc09 c43b e715 79bd ccae d13d 9cf0 9ebd
000002c0: 226b 44bd 3c81 a63d 8512 c13d b919 b8bb
000002d0: d9da 193d f959 e3bd 4cc0 a6bb f92e ebbc
000002e0: 4922 ed3c 9a7f 653d f10b f7bd 43af d8bd
000002f0: b07e c6bc 9e6b f3bc 2303 a63d f24c d0bd
00000300: 47bf 3b3d 9c0e 08be a0ec 5f3b 9a2f 203d
00000310: e134 c5bd 7d39 643d 18aa 8d3d 098d e7bd
00000320: 7715 d8bd f89c f1bd 2aaf 533d 3f45 3ebd
00000330: 880e d0bc 7f2b adbd 85a2 bfbc 52d2 73bc
00000340: a2d3 423d 5c3f 65bd 5dc8 263d b29c e6bd
00000350: b667 56bd 8872 253c 81b1 95bd ec40 17be
00000360: 34f1 9ebd ae9e 29bd 392e c23d 2b35 c4bd
00000370: 2367 8e3d d4ee d0bd 00af 6dbc 8379 6ebc
00000380: dcec 62bd df7f 09be 517a e7bd b588 f3bd
00000390: bb8b bdbd a999 9e3d bfbb c2bd 8093 1b3d
000003a0: defe 043d ebb2 e4bd dce3 703c 2a49 9b3d
000003b0: 339a 2abd 5eec 06bd 5967 873d 5275 16bd
000003c0: c996 d8bd 168b 95bd 0d5b babd 4048 5d3b
000003d0: 7f76 d3bd c5bd a13c 4054 50bc 425b 10be
000003e0: 3496 893d 014b d2bd 3b17 843d 803f babb
000003f0: 88c5 123d 5588 07bd 30b3 b9bd 76c6 12be

arith.constant6 f4 [32, 3, 3, 32]
-0.01841315 -0.035814736 -0.02005182 0.072704755 -0.15411888 0.09667837 -0.1356426 0.22053361
-0.015485494 -0.15138195 0.19641262 0.06731152 -0.18347074 0.0061031417 0.035000093 0.13036834
-0.08009874 -0.011093238 0.14993887 -0.0828564 -0.01150977 0.01639842 -0.021360341 0.093542285
0.15489516 0.019680988 0.15438269 0.07853068 0.059357908 0.10109232 0.21453464 0.030287242
0.030345106 0.098244704 -0.14618784 0.07490142 -0.08730203 -0.06141134 -0.022692366 0.119032025
0.06387786 -0.190972 0.027727174 -0.12098953 -0.16485098 0.074758075 0.04311186 0.086996205
-0.06748172 -0.010737462 0.12032946 -0.07273605 -0.01669939 0.057596035 -0.05877152 -0.09816778
-0.041619997 0.027660696 0.09334405 0.14128385 0.10543546 0.04316204 0.03207843 -0.08024849
0.056308586 -0.0447876 0.06995806 -0.03026544 -0.027967472 0.09407272 0.038701225 -0.0114144
0.07568865 -0.051548813 0.10576233 -0.094051205 0.006363977 0.0537392 -0.12072948 0.07556889
-0.07203368 -0.063869104 0.028211702 -0.053745046 0.11114894 0.041911244 -0.053705595 -0.05948942
-0.019900547 -0.094275266 0.017336974 -0.08469353 0.07248439 -0.036213607 0.19634616 -0.022562906
0.11803759 0.025019147 -0.102184094 -0.015444958 -0.18149792 0.0688477 -0.124728456 -0.09861228
0.07795998 -0.17921792 -0.11317014 -0.04790628 -0.15560432 0.04140431 0.11956021 0.1823767
-0.0700066 0.054300003 -0.1312543 0.027706187 0.09189199 -0.082919285 0.015556119 0.03245519
-0.10650583 -0.07272993 -0.0015168992 0.02247802 0.06365376 0.100331396 -0.20863083 -0.06347388
0.024213957 -0.07087118 -0.26102132 -0.030527962 -0.15631329 0.14023873 -0.0919222 -0.14254725
0.16023906 -0.09682994 -0.20008014 -0.24204077 -0.22226222 0.0518689 0.11524086 0.030469147
-0.07431398 -0.108605675 -0.12609214 0.08166873 0.01061924 -0.12858744 0.062056754 0.14402607
-0.14482832 0.105230235 -0.0958349 -0.013275663 0.10906008 0.007357776 -0.21646725 -0.10284782
0.14638834 0.074276894 -0.12264451 -0.086119495 -0.09801403 0.055075258 -0.0013242825 -0.09704135
0.027641103 -0.12762383 -0.077573515 -0.1024642 -0.03669755 -0.03972253 0.1000767 0.13766219
0.081071235 -0.05536911 -0.13716476 -0.0111083435 0.091550685 -0.22558539 0.114028186 0.107333675
-0.18576257 0.00029731164 -0.042201113 -0.070497654 0.122336864 0.022235692 -0.17324051 -0.085691
-0.015857365 0.043898962 0.050775956 -0.051246107 0.13780576 0.03745467 -0.051983032 -0.0018512341
0.059780292 0.116837166 0.015880333 -0.010465199 0.10145235 0.038070094 -0.042813294 -0.026309406
-0.046423286 0.18757364 0.027976936 0.059938136 -0.001529132 -0.05626846 0.12098112 0.058035064
0.008968603 0.10852031 0.0005678554 0.15604676 -0.013450126 -0.08766884 0.14570962 0.043018747
0.09037106 -0.076219596 0.09712469 -0.07235698 0.07975731 -0.0648074 -0.014164307 0.08800298
-0.01171432 0.15648162 -0.10219743 -0.0442251 -0.0027429473 -0.0778705 0.0011449741 -0.034554534
0.010722309 0.06734826 0.04943927 -0.0027264536 -0.026557669 -0.11982633 0.07347455 -0.012312768
-0.011868976 0.03795353 -0.051119234 0.080196954 0.04475799 -0.079185896 0.0447295 0.05664745
00000000: 2dd7 96bc 79b2 12bd b743 a4bc 3be6 943d
00000010: 57d1 1dbe 4fff c53d e5e5 0abe 90d3 613e
00000020: dfb6 7dbc df03 1bbe 6420 493e 9fda 893d
00000030: c1df 3bbe ddfc c73b 425c 0f3d 477f 053e
00000040: cf0a a4bd 6ac0 35bc 9389 193e 9eb0 a9bd
00000050: 7993 3cbc fb55 863c e2fb aebc 1993 bf3d
00000060: d69c 1e3e 063a a13c 7f16 1e3e b1d4 a03d
00000070: 4721 733d 7e09 cf3d f8ae 5b3e f31c f83c
00000080: 4d96 f83c 8534 c93d 44b2 15be ea65 993d
00000090: 68cb b2bd 758a 7bbd 57e5 b9bc 10c7 f33d
000000a0: 65d2 823d 2a8e 43be 1924 e33c 5cc9 f7bd
000000b0: b2ce 28be c31a 993d 1096 303d 112b b23d
000000c0: db33 8abd 2eec 2fbc 4b6f f63d a3f6 94bd
000000d0: 29cd 88bc d2e9 6b3d 68ba 70bd 300c c9bd
000000e0: bb79 2abd af98 e23c 2a2b bf3d b7ac 103e
000000f0: 8cee d73d aeca 303d ac64 033d 5259 a4bd
00000100: d5a3 663d 3473 37bd 2c46 8f3d 3aef f7bc
00000110: 0a1c e5bc 33a9 c03d 2d85 1e3d 7703 3bbc
00000120: a702 9b3d d924 53bd ec99 d83d eb9d c0bd
00000130: e988 d03b a31d 5c3d 0541 f7bd ddc3 9a3d
00000140: 6586 93bd cecd 82bd 3a1c e73c c423 5cbd
00000150: 0ea2 e33d 20ab 2b3d 66fa 5bbd 2eab 73bd
00000160: 7906 a3bc 6413 c1bd 4506 8e3c cd73 adbd
00000170: b272 943d b854 14bd f80e 493e d8d5 b8bc
00000180: b1bd f13d f4f4 cc3c e545 d1bd d90c 7dbc
00000190: 97da 39be 0600 8d3d a271 ffbd 3cf5 c9bd
000001a0: 7ba9 9f3d e784 37be bfc5 e7bd 6039 44bd
000001b0: bd56 1fbe 9197 293d fcdb f43d f5c0 3a3e
000001c0: 9f5f 8fbd ae69 5e3d 8767 06be 16f8 e23c
000001d0: de31 bc3d 96d1 a9bd 18df 7e3c bcef 043d
000001e0: bb1f dabd 6ef3 94bd b1d2 c6ba d323 b83c
000001f0: e75c 823d 8c7a cd3d 52a3 55be 98fe 81bd
00000200: 595c c63c e924 91bd 96a4 85be c715 fabc
00000210: 9710 20be be9a 0f3e b541 bcbd e8f7 11be
00000220: b515 243e c74e c6bd cfe1 4cbe 89d9 77be
00000230: b598 63be 7c74 543d 6603 ec3d 6f9a f93c
00000240: ee31 98bd a76c debd 4c1e 01be ef41 a73d
00000250: 52fc 2d3c 6dac 03be 392f 7e3d 927b 133e
00000260: e04d 14be f382 d73d 1745 c4bd 2b82 59bc
00000270: e45a df3d 8019 f13b 97a9 5dbe e1a1 d2bd
00000280: d3e6 153e 7c1e 983d 0b2d fbbd 6b5f b0bd
00000290: 94bb c8bd 9896 613d 8c93 adba 9ebd c6bd
000002a0: 986f e23c d2af 02be ddde 9ebd c0d8 d1bd
000002b0: 2c50 16bd 17b4 22bd 03f5 cc3d 51f7 0c3e
000002c0: ad08 a63d b8ca 62bd eb74 0cbe c5ff 35bc
000002d0: ed7e bb3d dbff 66be 9c87 e93d c2d1 db3d
000002e0: 8b38 3ebe 7ee0 9b39 13db 2cbd 1361 90bd
000002f0: c08b fa3d a027 b63c f665 31be c37e afbd
00000300: 4ee7 81bc 66cf 333d 73fa 4f3d 70e7 51bd
00000310: f41c 0d3e 116a 193d 29ec 54bd 1ca5 f2ba
00000320: 2edc 743d 5348 ef3d 7917 823c 3a76 2bbc
00000330: 40c6 cf3d 63ef 1b3d fe5c 2fbd d386 d7bc
00000340: 5826 3ebd 4e13 403e e32f e53c b181 753d
00000350: 286d c8ba c279 66bd f3c4 f73d 2db6 6d3d
00000360: 0cf1 123c e53f de3d 21dc 143a b9ca 1f3e
00000370: eb5d 5cbc b98b b3bd e734 153e 6d34 303d
00000380: 7614 b93d 0519 9cbd 4fe9 c63d e52f 94bd
00000390: cd57 a33d beb9 84bd 6911 68bc e83a b43d
000003a0: 6bed 3fbc b83c 203e e34c d1bd 6125 35bd
000003b0: 05c3 33bb 927a 9fbd f512 963a 0e89 0dbd
000003c0: a0ac 2f3c e2ed 893d d580 4a3d 4dae 32bb
000003d0: 788f d9bc 8267 f5bd d379 963d 7ebb 49bc
000003e0: 1876 42bc 2975 1b3d 6762 51bd 4d3e a43d
000003f0: 2754 373d 372c a2bd 4836 373d 2807 683d

arith.constant7 f4 [32, 3, 3, 64]
-0.032672696 0.05542779 -0.0042714723 -0.04566668 -0.0449308 -0.037126165 -0.057540916 -0.0035763802
-0.0633468 -0.052486133 0.010991295 0.029518558 0.037126698 -0.02370582 0.05499767 -0.114942305
-0.017755613 -0.019658245 0.023639414 -0.08130353 0.038485743 -0.016486153 0.03792821 0.03843662
0.03343185 -0.07728225 0.03560257 -0.021906376 -0.0008770202 -0.056832492 -0.0063871294 0.052203216
-0.040071327 -0.041582774 -0.05444877 0.026009193 -0.089692295 0.039233018 -0.024262609 0.03805695
0.023914184 -0.082980506 -0.012241124 -0.019098649 -0.14625755 0.0040159654 -0.053150147 -0.03577491
-0.016555196 0.031843025 0.018202543 -0.022227896 0.06549492 -0.05725414 -0.009366474 0.021963352
0.01702479 0.07334086 -0.034046628 0.049091313 0.06760709 0.024804676 -0.025907544 -0.08470974
-5.571769e-05 -0.045440357 0.056225717 -0.027702639 0.038432453 -0.055726636 0.062149115 0.04352104
-0.06298884 0.042431775 0.070754215 0.018194178 -0.0011983552 0.025122104 -0.08132729 -0.10259515
-0.03626938 -0.07971539 -0.093907446 0.038496222 -0.086635284 -0.084492065 -0.06893323 0.072133616
-0.03851574 -0.0313005 0.055637315 -0.04443466 0.03553184 0.045963887 0.02087855 0.056835946
-0.012648949 0.05619454 -0.04349888 0.019205112 -0.07794145 0.0691177 0.007744117 -0.10375848
-0.008367767 -0.112722635 -0.045206834 -0.017840812 -0.085831925 -0.037149962 -0.0824856 0.039832927
0.009977608 0.054428346 -0.10975076 -0.027934708 0.048405502 -0.05317072 0.052732524 -0.058717668
-0.049519066 0.03683718 -0.031472083 -0.065885365 0.066884376 -0.012216392 -0.026083697 -0.03732135
-0.04708723 -0.08268681 -0.04945015 0.030975977 0.06525036 0.0027929188 -0.05011177 0.06600522
-0.015202837 0.060525723 0.012444794 -0.091769345 -0.026020998 -0.088687696 -0.017207893 0.0036270109
0.028679641 -0.034308333 0.029315904 -0.063744366 0.06348906 -0.019441023 0.013894643 0.05392958
0.04821332 -0.0015449248 0.06737484 -0.023803294 0.04834049 -0.039025303 -0.022502039 0.0129357
-0.11323774 -0.0786472 0.027440125 0.008233068 -0.102915525 -0.0006436244 0.012139596 0.013981759
-0.062068645 -0.02620947 -0.021145029 -0.042880774 -0.0037584447 -0.034832895 0.05119605 0.025870858
-0.057397664 -0.08607821 -0.035249457 -0.027246758 0.0213438 -0.07552719 -0.03537935 0.062063072
0.018555826 -0.0038146568 0.055128578 -0.09763782 -0.09220187 -0.040672787 -0.10490897 0.008223174
0.02444486 0.006187036 -0.082334794 -0.0576042 -0.07073246 -0.13778271 -0.034676116 -0.012967107
-0.087584324 -0.062009167 0.056663103 -0.057118103 0.080081746 0.055049185 -0.044328798 -0.095793396
0.0139537 -0.05935037 -0.022999158 -0.014371773 -0.045722686 -0.024788745 -0.07056064 -0.033939015
-0.08269257 0.05268173 0.012216923 -0.06881217 -0.0640525 0.047326073 -0.005227401 -0.01649419
-0.0711842 0.030496232 0.0011809306 -0.04401806 -0.0032221556 0.048255254 -0.0005840286 -0.10312847
0.0733082 -0.110598065 0.052663133 0.03897688 -0.15491982 -0.0527346 -0.011565499 -0.03543271
-0.12552759 0.02490066 -0.0036205237 -0.040369198 0.005447257 0.0134843495 -0.028792555 0.06731653
-0.0488772 -0.021874756 0.012876917 -0.027416036 -0.03530368 -0.050568547 -0.038216323 -0.11701158
00000000: ced3 05bd 4008 633d b5f7 8bbb fc0c 3bbd
00000010: 5c09 38bd 9b11 18bd 06b0 6bbd b461 6abb
00000020: f8bb 81bd b3fb 56bd d514 343c e7d0 f13c
00000030: 2a12 183d b532 c2bc 3d45 613d df66 ebbd
00000040: 3874 91bc 540a a1bc 72a7 c13c 7782 a6bd
00000050: 3aa3 1d3d f80d 87bc 9c5a 1b3d b86f 1d3d
00000060: d6ef 083d 2846 9ebd 00d4 113d 0075 b3bc
00000070: d4e7 65ba 30c9 68bd 204b d1bb 0ad3 553d
00000080: d521 24bd b352 2abd ac05 5fbd 3b11 d53c
00000090: 98b0 b7bd cdb2 203d 61c2 c6bc 9be1 1b3d
000000a0: aee7 c33c aff1 a9bd ff8e 48bc c574 9cbc
000000b0: 8ac4 15be 5c98 833b f8b3 59bd b688 12bd
000000c0: c39e 87bc d56d 023d 801d 953c 4717 b6bc
000000d0: 3322 863d 5183 6abd d775 19bc 7dec b33c
000000e0: 9377 8b3c bc33 963d 7a74 0bbd f913 493d
000000f0: 9675 8a3d 2d33 cb3c 0f3c d4bc 4d7c adbd
00000100: 6ab2 69b8 ab1f 3abd f04c 663d a5f0 e2bc
00000110: 596b 1d3d 9d41 64bd 1290 7e3d 1e43 323d
00000120: 4b00 81bd f1cc 2d3d 96e7 903d f50b 953c
00000130: 2112 9dba dfcc cd3c ec8e a6bd 681d d2bd
00000140: 348f 14bd d341 a3bd 8c52 c0bd 37ae 1d3d
00000150: d76d b1bd 2d0a adbd de2c 8dbd caba 933d
00000160: aec2 1dbd f434 00bd f4e3 633d 1e01 36bd
00000170: d689 113d a144 3c3d 7e09 ab3c cfcc 683d
00000180: 8a3d 4fbc 3f2c 663d e22b 32bd 0a54 9d3c
00000190: c49f 9fbd 958d 8d3d 5dc2 fd3b 537f d4bd
000001a0: f518 09bc 20db e6bd cd2a 39bd e526 92bc
000001b0: a6c8 afbd 8f2a 18bd 36ee a8bd da27 233d
000001c0: 1f79 233c 42f0 5e3d 02c5 e0bd 54d7 e4bc
000001d0: d944 463d 8ac9 59bd 0ffe 573d f081 70bd
000001e0: 81d4 4abd 95e2 163d dfe8 00bd e8ee 86bd
000001f0: adfa 883d 4327 48bc 7aad d5bc 46de 18bd
00000200: 8ade 40bd b457 a9bd 3e8c 4abd 55c1 fd3c
00000210: fba1 853d 6709 373b 0042 4dbd bf2d 873d
00000220: 5215 79bc d2e9 773d 40e5 4b3c 91f1 bbbd
00000230: fd29 d5bc e5a1 b5bd 91f7 8cbc 25b3 6d3b
00000240: 91f1 ea3c e586 0cbd e827 f03c 688c 82bd
00000250: 8d06 823d c842 9fbc 5ba6 633c 43e5 5c3d
00000260: 557b 453d 137f caba d2fb 893d 20ff c2bc
00000270: ad00 463d ffd8 1fbd 3256 b8bc 42f0 533c
00000280: 30e9 e7bd c811 a1bd 1dca e03c fde3 063c
00000290: 60c5 d2bd e7b8 28ba 28e5 463c bf13 653c
000002a0: b13b 7ebd 3eb5 d6bc 5738 adbc c0a3 2fbd
000002b0: 3d50 76bb f0ac 0ebd f3b2 513d 1fef d33c
000002c0: d019 6bbd c649 b0bd bc61 10bd 9834 dfbc
000002d0: 31d9 ae3c 00ae 9abd f0e9 10bd d935 7e3d
000002e0: 6302 983c 52ff 79bb 81ce 613d 56f6 c7bd
000002f0: 56d4 bcbd 8298 26bd 84da d6bd 7eba 063c
00000300: 9640 c83c 9fbc ca3b 259f a8bd 62f2 6bbd
00000310: 2edc 90bd e916 0dbe 8b08 0ebd fd73 54bc
00000320: 695f b3bd 53fd 7dbd 9217 683d acf4 69bd
00000330: e601 a43d 417b 613d 1d92 35bd 542f c4bd
00000340: 0f9e 643c 6019 73bd bb68 bcbc 9677 6bbc
00000350: b647 3bbd c411 cbbc 1982 90bd a303 0bbd
00000360: b95a a9bd ccc8 573d 7d29 483c 65ed 8cbd
00000370: f52d 83bd fcd8 413d 9e4a abbb d31e 87bc
00000380: 06c9 91bd 3cd3 f93c 75c9 9a3a 484c 34bd
00000390: cd2a 53bb 4da7 453d 7f19 19ba 0535 d3bd
000003a0: 9c22 963d 3d81 e2bd 4cb5 573d 39a6 1f3d
000003b0: 4da3 1ebe 3c00 58bd 387d 3dbc e421 11bd
000003c0: 4e8a 00be 78fc cb3c 4f46 6dbb 2c5a 25bd
000003d0: e77e b23b 76ed 5c3c 5dde ebbc 40dd 893d
000003e0: 7533 48bd b032 b3bc b4f9 523c 9897 e0bc
000003f0: 979a 10bd f720 4fbd b888 1cbd c4a3 efbd

arith.constant8 f4 [1, 64]
0.21096608 0.24120249 -0.35409057 0.1615802 0.10362608 -0.34684652 0.14304714 -0.33934247
-0.33283985 0.3615944 -0.518846 0.24882281 0.20334418 -0.4763253 0.097615175 0.015894847
0.16244422 -0.2793355 -0.2608415 0.15632226 -0.47808665 -0.00031145263 0.24566238 -0.39370897
-0.10702977 -0.30359805 0.2483176 -0.20531967 0.073513485 -0.4413672 -0.5171261 0.25484484
-0.4774461 0.079167664 -0.33955187 0.13561347 -0.24996628 0.16632918 0.2040109 0.072441414
-0.21231146 -0.38538468 -0.3521476 -0.22597423 0.21606734 -0.42255262 0.21535458 0.1644427
0.20379429 0.22972314 0.029491311 0.24161988 0.12941045 0.13789342 -0.29744717 0.154666
0.1570046 -0.06808354 -0.36333215 0.14604099 0.10779197 -0.25474975 -0.4202422 -0.48161808
00000000: 7e07 583e c9fd 763e 5c4b b5be 4875 253e
00000010: e939 d43d de95 b1be f37a 123e 4cbe adbe
00000020: fc69 aabe e722 b93e 17d3 04bf 68cb 7e3e
00000030: 7539 503e e9e0 f3be 77ea c73d e935 823c
00000040: c757 263e 1005 8fbe 048d 85be f112 203e
00000050: c6c7 f4be 774a a3b9 eb8e 7b3e 3994 c9be
00000060: 6d32 dbbd 3471 9bbe f846 7e3e 523f 52be
00000070: 3d8e 963d e2fa e1be 6062 04bf 067b 823e
00000080: d173 f4be a822 a23d bed9 adbe 42de 0a3e
00000090: 29f7 7fbe 3252 2a3e 3ce8 503e 2a5c 943d
000000a0: 2d68 59be 2451 c5be b14c b4be ca65 67be
000000b0: c240 5d3e d158 d8be e985 5c3e ab63 283e
000000c0: 73af 503e 8b3c 6b3e c397 f13c 346b 773e
000000d0: 2c84 043e ef33 0d3e ff4a 98be c460 1e3e
000000e0: d0c5 203e 626f 8bbd ac06 babe c58b 153e
000000f0: 09c2 dc3d 8f6e 82be fc29 d7be a596 f6be

arith.constant9 f4 [64, 128]
0.17246842 -0.018648729 0.106239595 -0.07282723 -0.08670392 0.14415246 0.054975104 0.02288248
-0.065741986 -0.1271449 0.10581076 -0.018711794 0.08610623 -0.00215891 0.030959092 0.08188049
-0.059986364 0.1405189 0.15334965 0.25424623 0.08914998 0.14886457 0.06313875 -0.1250604
0.13623749 0.026120726 0.10825623 -0.015475787 0.17750166 0.14229964 0.024891889 0.21716297
0.3705472 0.14433207 -0.004026028 0.0075808982 0.27118444 0.12892789 0.0289303 -0.081239134
0.19999437 -0.06537989 0.092772275 0.040062416 -0.0133133875 0.056081265 0.071906164 0.17686161
0.25465795 0.054070823 0.04979581 -0.043560322 0.041000843 0.10022627 -0.026052283 0.14950119
0.24923992 0.040766597 -0.005827105 -0.15260155 0.15659268 0.12909044 -0.026021056 0.15254247
0.15866326 -0.14098348 0.14234394 -0.1311875 0.1638791 0.22916573 0.046270225 -0.046259277
-0.13006921 -0.022818508 -0.07030283 0.048818626 -0.008333509 0.2075448 -0.02124905 -0.044066172
-0.09107403 -0.07999111 -0.09454203 0.2811678 0.0764027 0.24886468 0.23741663 0.2588413
0.1832102 0.07773932 -0.015726944 0.047692284 -0.004448285 0.18507636 0.19371071 0.20736732
0.10677527 0.21456425 0.06709639 0.07868516 -0.063337825 0.24067977 -0.046893522 0.14406589
0.0760449 -0.05975661 0.0569543 0.05652907 0.18077773 0.0010386115 -0.12915294 0.10925814
0.10237205 -0.11378815 -0.021254988 0.022698654 0.18191941 0.17893274 0.15648727 -0.15561216
0.19738376 -0.14638656 0.044206053 0.084366836 0.21160683 -0.009475322 -0.06868226 0.13989197
-0.082763776 -2.5288675e-05 0.029751865 0.08853502 -0.06298653 0.24362572 -0.012307393 0.055363566
0.1777985 -0.13032487 0.024857212 0.04970397 0.21487817 0.14261635 0.03675252 0.20569775
-0.09114443 0.027130643 0.1299982 0.077235855 0.012261199 -0.02316222 -0.09477716 0.18533999
-0.18713535 -0.041845936 0.12583184 -0.11199817 0.18056367 0.06293593 0.1899092 0.09747706
0.121160835 -0.04273268 0.11323532 -0.12861255 0.047554825 0.1375875 0.1277345 0.15047881
0.03508361 -0.001690757 0.07445778 -0.11741213 0.15361585 -0.03199621 -0.014415039 0.022594474
-0.015054163 0.15096085 0.030724987 0.1508198 0.2318845 -0.035198353 0.020797674 0.061732735
-0.07289506 0.18627083 -0.061609164 -0.041842114 -0.037473872 -0.035047047 -0.04039056 -0.20948227
0.0084661655 -0.099606134 -0.055765584 0.22404449 0.037065323 -0.06267584 -0.05050093 -0.067494884
0.098790385 0.0625487 0.23139535 0.03542842 -0.11628386 -0.004031145 -0.042085115 -0.055392526
-0.06779691 -0.10478424 -0.16339098 0.048118997 0.13995703 0.021178473 0.024868688 0.12643968
0.21208443 0.2724779 0.13137518 0.09082538 0.0048011467 0.048962854 0.1791305 0.14820743
-0.007958723 0.07650906 -0.07618071 0.035317436 0.2216064 0.24236657 -0.0470345 0.0062214113
-0.02640762 0.09954196 -0.04124191 0.07791257 0.09682925 0.17875293 0.038074106 -0.10293043
0.047318947 0.07940972 -0.12437872 -0.07161608 0.13788877 0.105709195 0.028236333 -0.14264138
0.18209837 0.085792795 -0.16376682 0.108303495 -0.11151111 -0.15244162 0.13413495 0.07670293
00000000: 909b 303e 38c5 98bc 2594 d93d 7126 95bd
00000010: d391 b1bd b49c 133e 932d 613d 0a74 bb3c
00000020: bca3 86bd 4632 02be 50b3 d83d 7a49 99bc
00000030: 7758 b03d 807c 0dbb ec9d fd3c f5b0 a73d
00000040: 43b4 75bd 30e4 0f3e b107 1d3e 902c 823e
00000050: 4494 b63d f46f 183e e44e 813d d50f 00be
00000060: d781 0b3e 22fb d53c 71b5 dd3d 288e 7dbc
00000070: ffc2 353e ffb6 113e 13ea cb3c f85f 5e3e
00000080: 5db8 bd3e c9cb 133e c5ec 83bb 2f69 f83b
00000090: b0d8 8a3e ac05 043e 3dff ec3c b460 a6bd
000000a0: 53cb 4c3e e4e5 85bd 64ff bd3d 7d18 243d
000000b0: 6520 5abc 78b5 653d 8a43 933d 361b 353e
000000c0: 8762 823e 5e79 5d3d b1f6 4b3d 4f6c 32bd
000000d0: 80f0 273d 6e43 cd3d 996b d5bc d716 193e
000000e0: c038 7f3e e0fa 263d 4df1 bebb 9543 1cbe
000000f0: d559 203e 4930 043e 1c2a d5bc 1834 1c3e
00000100: 9f78 223e f95d 10be 9cc2 113e 0456 06be
00000110: eccf 273e 6caa 6a3e d985 3d3d 5e7a 3dbd
00000120: dd30 05be e1ed babc eefa 8fbd 0af6 473d
00000130: 4589 08bc a086 543e 7d12 aebc bb7e 34bd
00000140: 0585 babd 61d2 a3bd 409f c1bd 3af5 8f3e
00000150: 0579 9c3d 62d6 7e3e 581d 733e d986 843e
00000160: 749b 3b3e cb35 9f3d cbd5 80bc fc58 433d
00000170: ebc2 91bb a884 3d3e 1a5c 463e 1958 543e
00000180: feac da3d bbb6 5b3e d569 893d af25 a13d
00000190: 43b7 81bd c274 763e 6c13 40bd 0286 133e
000001a0: 6ebd 9b3d 59c3 74bd e948 693d 078b 673d
000001b0: cc1d 393e 0522 883a ab40 04be bbc2 df3d
000001c0: 70a8 d13d c309 e9bd f11e aebc 87f2 b93c
000001d0: 1549 3a3e 253a 373e 333e 203e cb58 1fbe
000001e0: f81e 4a3e 5ce6 15be 6811 353d 85c8 ac3d
000001f0: 76af 583e 623e 1bbc 49a9 8cbd d73f 0f3e
00000200: 0e80 a9bd 0423 d4b7 2fba f33c d951 b53d
00000210: 15ff 80bd 0579 793e f3a4 49bc e8c4 623d
00000220: cf10 363e e273 05be 5aa1 cb3c 6496 4b3d
00000230: 0609 5c3e 050a 123e cf89 163d 6ea2 523e
00000240: eea9 babd 1541 de3c 401e 053e d52d 9e3d
00000250: 32e3 483c b2be bdbc 871a c2bd c4c9 3d3e
00000260: 69a0 3fbe a566 2bbd 10da 003e 4c5f e5bd
00000270: afe5 383e 8ee4 803d 8f77 423e 0ea2 c73d
00000280: 2c23 f83d 7608 2fbd ebe7 e73d 02b3 03be
00000290: d9c8 423d bde3 0c3e d5cc 023e 1e17 1a3e
000002a0: d5b3 0f3d 649c ddba 527d 983d c575 f0bd
000002b0: 794d 1d3e 750e 03bd 0e2d 6cbc 0c18 b93c
000002c0: bca5 76bc 7b95 1a3e f8b2 fb3c 8170 1a3e
000002d0: 2173 6d3e 262c 10bd e25f aa3c 77db 7c3d
000002e0: 014a 95bd c8bd 3e3e e459 7cbd a362 2bbd
000002f0: 347e 19bd 7e8d 0fbd 9270 25bd 8582 56be
00000300: acb5 0a3c 4dfe cbbd 746a 64bd eb6b 653e
00000310: cfd1 173d 315c 80bd 10da 4ebd c23a 8abd
00000320: 9d52 ca3d 8819 803d e7f2 6c3e 641d 113d
00000330: 3b26 eebd b217 84bb 7161 2cbd 46e3 62bd
00000340: 1bd9 8abd 1f99 d6bd f74f 27be 6d18 453d
00000350: e550 0f3e 7a7e ad3c 6bb9 cb3c 6779 013e
00000360: a92c 593e 3982 8b3e 3787 063e a802 ba3d
00000370: f052 9d3b 468d 483d fc6d 373e b0c3 173e
00000380: 4e65 02bc c8b0 9c3d a204 9cbd 04a9 103d
00000390: caec 623e f12e 783e 3fa7 40bd fbdc cb3b
000003a0: cb54 d8bc a8dc cb3d 47ed 28bd a090 9f3d
000003b0: 6a4e c63d 020b 373e 98f3 1b3d 30cd d2bd
000003c0: 83d1 413d 90a1 a23d 45ba febd 74ab 92bd
000003d0: b732 0d3e 107e d83d e24f e73c 9510 12be
000003e0: ff77 3a3e 22b4 af3d 7db2 27be 39ce dd3d
000003f0: f05f e4bd a819 1cbe ac5a 093e 6d16 9d3d

arith.constant10 f4 [128, 16]
-0.2160993 -0.25484654 -0.11745328 0.01826251 -0.041641094 0.08529643 -0.06320137 -0.06885917
0.079343274 0.073837474 -0.21985368 -0.12984504 -0.12075769 -0.21799572 -0.086795636 -0.1464925
0.22404325 0.0029676594 0.16480546 -0.13971819 -0.11331512 0.07912395 0.20309283 -0.046741657
0.006345419 -0.054927673 -0.15737605 -0.2531309 -0.16808423 0.19982062 -0.036547024 -0.18301679
-0.17526947 -0.038877767 -0.038155477 0.19912532 0.05493577 0.11328606 -0.13815767 0.07897517
0.033751816 -0.07024621 -0.16364442 0.054218583 -0.13453466 0.18895929 -0.21514463 -0.12501775
0.1042486 -0.028982276 -0.13222288 -0.056946963 -0.12277875 0.20362268 -0.09091081 -0.081091486
0.028460238 -0.123186804 -0.2711828 -0.017341107 -0.07140095 0.021570565 0.118784286 0.060946602
-0.17951865 -0.266802 -0.12646663 0.0008899707 0.041714694 -0.045733687 -0.09781409 -0.16814795
0.013538786 0.0015421382 -0.11168547 -0.1939569 -0.108795285 -0.21038374 -0.26438534 -0.17811006
-0.049474448 -0.07341633 -0.07163025 -0.120399445 0.19744408 -0.07862556 -0.07069527 0.11280439
-0.16882575 -0.033170514 0.23279071 0.09429179 -0.10240535 0.14397372 -0.27694458 0.09670836
-0.070684664 -0.11716115 0.014475754 -0.040310666 -0.065737404 0.16740356 -0.055772316 -0.013381202
0.19347923 0.13215573 -0.0014846392 -0.22809958 -0.07650562 -0.11256482 -0.11036937 -0.119362
0.19252296 0.084043086 -0.2409219 0.088871345 0.048253402 0.11982605 -0.17055051 0.104518056
0.11863431 0.0010520801 -0.0028210306 -0.16337346 -0.17124605 0.01235405 0.25604606 0.080723494
-0.1902782 -0.25804558 -0.09994049 0.10122821 -0.14236481 -0.040108066 -0.19028382 -0.03535364
0.059617292 0.024880024 -0.22963703 -0.030519716 0.17174193 -0.04376469 -0.09001428 -0.19475874
0.046823114 -0.038579702 -0.15509798 0.049069177 -0.106137246 0.18611684 -0.021636995 0.07557495
0.15266941 -0.051527083 -0.20322607 -0.012277533 -0.09189988 -0.042120665 0.0027247993 -0.090622485
0.20638674 0.06346342 -0.15590212 -0.033470374 0.13829604 -0.08211422 -0.082458794 0.10042698
-0.21761501 -0.039352816 0.15994394 -0.21089572 0.15841359 -0.06940226 0.2674249 -0.03578778
0.1300934 -0.10740901 -0.20362966 -0.012181866 0.096254826 -0.17412624 -0.036466535 0.04743989
-0.037952024 0.0116409585 -0.07226963 0.17713475 -0.23381431 0.19798218 0.2538595 -0.077764206
-0.023543142 -0.15261811 0.06275542 -0.17937751 -0.107464835 0.041804772 0.16891435 -0.08927762
-0.08433388 -0.3837797 0.22825551 0.03237896 -0.20606776 -0.1751568 0.20573418 -0.31325725
-0.12932342 -0.17146507 -0.075912915 -0.028196005 -0.06564833 -0.058397662 -0.17467147 0.019085059
0.048720166 0.14117646 -0.21581012 -0.11699549 -0.34974435 -0.16946167 -0.15171006 -0.095869265
-0.14330965 -0.059258476 -0.026997052 -0.0067794016 -0.0025008763 0.076900996 0.2345264 -0.18840253
-0.3137089 -0.046823036 -0.27207887 0.04146887 0.051395528 -0.038027026 0.103928216 -0.23723885
0.16704114 -0.24496831 0.082598105 -0.32643732 0.14560957 0.13884191 -0.059424244 -0.023887817
0.009752574 0.034145392 0.027301583 0.07508718 -0.435009 0.13672347 0.09753491 0.11985413
00000000: 2349 5dbe 3f7b 82be 588b f0bd 429b 953c
00000010: da8f 2abd e5af ae3d b86f 81bd 0906 8dbd
00000020: ba7e a23d 1a38 973d 5321 61be 19f6 04be
00000030: cf4f f7bd 453a 5fbe e9c1 b1bd 2102 16be
00000040: 986b 653e 107d 423b c3c2 283e 4912 0fbe
00000050: c211 e8bd bd0b a23d 91f7 4f3e 2e74 3fbd
00000060: 3ced cf3b d7fb 60bd 3027 21be 609a 81be
00000070: 461e 2cbe c79d 4c3e 55b2 15bd c168 3bbe
00000080: d779 33be 4b3e 1fbd eb48 1cbd 82e7 4b3e
00000090: 5404 613d 8602 e83d 3479 0dbe bcbd a13d
000000a0: 583f 0a3d 3fdd 8fbd 6792 27be 4e14 5e3d
000000b0: 74c3 09be 8b7e 413e e04e 5cbe a704 00be
000000c0: 4a80 d53d 3d6c edbc 6f65 07be 3841 69bd
000000d0: 6d73 fbbd 7782 503e 722f babd 4b13 a6bd
000000e0: 7225 e93c 5d49 fcbd 79d8 8abe f00e 8ebc
000000f0: a93a 92bd c1b4 b03c 2d45 f33d 25a3 793d
00000100: bdd3 37be 469a 88be 7880 01be ec4c 693a
00000110: 07dd 2a3d 3f53 3bbd c152 c8bd fa2e 2cbe
00000120: c9d1 5d3c 9221 ca3a 5abb e4bd a39c 46be
00000130: 10d0 debd d66e 57be 845d 87be 7c62 36be
00000140: b8a5 4abd 4d5b 96bd e1b2 92bd fc93 f6bd
00000150: c82e 4a3e 7006 a1bd afc8 90bd fd05 e73d
00000160: a8e0 2cbe cedd 07bd b060 6e3e 0e1c c13d
00000170: e5b9 d1bd d96d 133e aecb 8dbe 080f c63d
00000180: 1fc3 90bd 2ff2 efbd b72b 6d3c cc1c 25bd
00000190: 55a1 86bd d76b 2b3e 8371 64bd d43c 5bbc
000001a0: 6b1f 463e d553 073e 3a98 c2ba f092 69be
000001b0: faae 9cbd 6288 e6bd 5609 e2bd 1074 f4bd
000001c0: bd24 453e c81e ac3d 3bb4 76be 2e02 b63d
000001d0: 5ca5 453d 5c67 f53d cba4 2ebe 900d d63d
000001e0: 8cf6 f23d f3e5 893a 0ae1 38bb 5f4b 27be
000001f0: 205b 2fbe a468 4a3c 7818 833e 5c52 a53d
00000200: 4ad8 42be 8d1e 84be 9aad ccbd bc50 cf3d
00000210: 15c8 11be 5b48 24bd c3d9 42be face 10bd
00000220: 4331 743d 31d1 cb3c f825 6bbe 7c04 fabc
00000230: 1edd 2f3e 9b42 33bd 6859 b8bd d66e 47be
00000240: 98c9 3f3d c005 1ebd 01d2 1ebe c3fc 483d
00000250: 7c5e d9bd 6a95 3e3e 1140 b1bc 0ac7 9a3d
00000260: 5f55 1c3e 100e 53bd 7f1a 50be b527 49bc
00000270: 0136 bcbd b886 2cbd 8c92 323b 4898 b9bd
00000280: 0c57 533e 1cf9 813d cea4 1fbe 3b18 09bd
00000290: 7a9d 0d3e 802b a8bd 28e0 a8bd a9ac cd3d
000002a0: 78d6 5ebe 6b30 21bd 58c8 233e 0cf5 57be
000002b0: 2c37 223e c622 8ebd ebeb 883e 3596 12bd
000002c0: 3437 053e 41f9 dbbd 4b84 50be 7396 47bc
000002d0: 4021 c53d 264e 32be ef5d 15bd 5550 423d
000002e0: 9573 1bbd b8b9 3e3c 1a02 94bd d062 353e
000002f0: 056d 6fbe d7bb 4a3e dff9 813e d742 9fbd
00000300: 8cdd c0bc ec47 1cbe ea85 803d bdae 37be
00000310: 8616 dcbd 7b3b 2b3d e2f7 2c3e 2fd7 b6bd
00000320: 3eb7 acbd c67e c4be d0bb 693e cd9f 043d
00000330: 6d03 53be 4e5c 33be fbab 523e 4163 a0be
00000340: 5c6d 04be 8a94 2fbe 3b78 9bbd 4ffb e6bc
00000350: a272 86bd 6332 6fbd 14dd 32be 4558 9c3c
00000360: cc8e 473d 9090 103e 54fd 5cbe 559b efbd
00000370: b111 b3be 5c87 2dbe e259 1bbe 1b57 c4bd
00000380: c4bf 12be 04b9 72bd ec28 ddbc be25 debb
00000390: bee5 23bb 457e 9d3d b027 703e 98ec 40be
000003a0: 749e a0be 83c9 3fbd ec4d 8bbe 43db 293d
000003b0: 1e84 523d 3ac2 1bbd 51d8 d43d beee 72be
000003c0: d50c 2b3e f9d8 7abe 3229 a93d cb22 a7be
000003d0: ad1a 153e 932c 0e3e d666 73bd 62b0 c3bc
000003e0: 43c9 1f3c 0adc 0b3d 92a7 df3c 4fc7 993d
000003f0: 80b9 debe 3d01 0c3e 62c0 c73d 1576 f53d

arith.constant12 f4 [128]
0.11289366 -0.020982008 0.10765768 0.05610252 0.05640346 -0.017509062 0.093949124 -0.1579786
0.04157114 0.12707482 -0.011632904 0.0055664275 -0.00383825 0.07423409 -0.024624137 -0.00088537496
0.15904434 0.16823962 0.13719128 -0.06944097 0.016216176 -0.06963982 -0.104913905 -0.04937673
0.13511734 -0.0201713 -0.034172375 -0.031919632 -0.06664506 0.14752243 -0.03460431 -0.046190053
0.017081942 0.12964374 0.09375324 0.15990147 -0.030298699 -0.058963507 -0.02032493 -0.15593892
-0.0300715 -0.028930997 -0.09793049 -0.11295716 -0.040068213 0.094104245 0.034416642 -0.03269028
-0.06479943 -0.09493837 -0.018424535 -0.060141176 0.035777558 0.020390755 0.103842966 0.015602311
-0.07673311 -0.06899328 -0.05950419 0.10707496 -0.03051295 0.19390053 0.15111311 0.123356484
-0.12608334 -0.103681706 -0.08147749 -0.10314843 -0.034070883 -0.032445755 0.051077638 0.10613422
-0.050313897 0.14491598 -0.07466768 0.06626649 0.15145333 -0.0048619425 0.04532055 0.012083285
-0.036217272 -0.07641842 0.14840771 -0.024542425 -0.105093606 -0.0055535454 0.036282957 -0.13295868
-0.12319249 0.010807426 -0.028707596 -0.013701724 0.027744053 0.020582253 -0.0032629343 -0.067888975
-0.07546663 -0.029386107 0.03420847 -0.03899369 0.001210279 -0.10406563 -0.023312846 0.018132221
-0.034837615 -0.09520198 0.108670786 -0.021581264 0.037969075 -0.011236371 -0.15601529 0.08140139
-0.048732273 0.10058113 0.06794925 0.104768604 -0.052458324 -0.021378685 -0.107310764 0.1721164
-0.083197534 -0.017769353 -0.13857253 0.14790192 -0.10876633 0.0024221553 -0.12130582 -0.03366951
00000000: cb34 e73d 76e2 abbc a17b dc3d c2cb 653d
00000010: 5107 673d 2a6f 8fbc 6668 c03d 24c5 21be
00000020: 8046 2a3d e71f 023e f097 3ebc 9466 b63b
00000030: 268b 7bbb 0b08 983d 8fb8 c9bc 8218 68ba
00000040: 85dc 223e 0247 2c3e df7b 0c3e 1137 8ebd
00000050: c9d7 843c 529f 8ebd 1add d6bd 413f 4abd
00000060: 335c 0a3e 483e a5bc 55f8 0bbd 29be 02bd
00000070: 357d 88bd 1f10 173e 40bd 0dbd c831 3dbd
00000080: 6eef 8b3c 54c1 043e b301 c03d 36bd 233e
00000090: fa34 f8bc b883 71bd 7880 a6bc 74ae 1fbe
000000a0: 8258 f6bc b300 edbc c88f c8bd 1556 e7bd
000000b0: 911e 24bd bab9 c03d 77f8 0c3d 3ee6 05bd
000000c0: 90b5 84bd 0c6f c2bd 0def 96bc 9856 76bd
000000d0: 7d8b 123d 830a a73c 9fab d43d d6a0 7f3c
000000e0: 4026 9dbd 594c 8dbd aaba 73bd 1e4a db3d
000000f0: 4bf6 f9bc dc8d 463e 65bd 1a3e 53a2 fc3d
00000100: fe1b 01be 1357 d4bd acdd a6bd 7c3f d3bd
00000110: e98d 0bbd d7e5 04bd c936 513d e65c d93d
00000120: f215 4ebd db64 143e 5eeb 98bd bab6 873d
00000130: 9516 1b3e ee50 9fbb 0ba2 393d f8f8 453c
00000140: 9058 14bd 4381 9cbd 31f8 173e 320d c9bc
00000150: 513b d7bd 84fa b5bb 709d 143d 5226 08be
00000160: 584c fcbd a111 313c 312c ebbc 327d 60bc
00000170: 7f47 e33c 1d9c a83c f4d6 55bb 6009 8bbd
00000180: 408e 9abd 22bb f0bc 2e1e 0c3d d9b7 1fbd
00000190: 39a2 9e3a 5c20 d5bd 95fa bebc 068a 943c
000001a0: e3b1 0ebd 41f9 c2bd ca8e de3d 31cb b0bc
000001b0: 7685 1b3d c118 38bc 79c2 1fbe c6b5 a63d
000001c0: 7e9b 47bd 7bfd cd3d fa28 8b3d ec90 d63d
000001d0: 8ade 56bd 5a22 afbc bfc5 dbbd 483f 303e
000001e0: 7863 aabd 0991 91bc f5e5 0dbe 9a73 173e
000001f0: e2c0 debd 06bd 1e3b 306f f8bd 0ae9 09bd

arith.constant13 f4 [64]
-0.06427877 -0.07323731 0.23755759 -0.050744697 -0.053017285 0.20990731 -0.06910548 0.22656463
0.20805587 -0.043831687 0.12778057 0.0021925967 -0.050693408 0.07538942 -0.065964706 -0.053173717
-0.10233378 0.27934334 0.1566195 -0.040261745 0.10712325 -0.04651016 -0.052999496 0.24236451
0.10923309 0.15836842 -0.08252541 0.22960159 -0.035155457 0.1649929 0.071636334 -0.027930379
0.07317624 -0.05186383 0.024982387 -0.1048842 0.289884 -0.0633891 -0.093089916 -0.03085069
0.30421814 0.20726374 0.04171031 0.037185226 -0.06503536 0.20207414 -0.052065242 -0.06723986
-0.09544449 -0.092697024 -0.06927246 -0.09142869 -0.07719896 -0.01847971 0.22637877 -0.059733365
-0.05305245 -0.020341083 0.20334241 -0.09919161 -0.11136446 -0.027282882 0.085922375 0.14264803
00000000: 96a4 83bd 71fd 95bd 4c42 733e acd9 4fbd
00000010: a728 59bd f1f1 563e 2d87 8dbd 8f00 683e
00000020: 990c 553e db88 33bd e9d8 023e abb1 0f3b
00000030: e4a3 4fbd c565 9a3d 8118 87bd afcc 59bd
00000040: 5f94 d1bd 1706 8f3e dd60 203e 80e9 24bd
00000050: 6f63 db3d 7081 3ebd 0016 59bd 672e 783e
00000060: 99b5 df3d 552b 223e 1503 a9bd ae1c 6b3e
00000070: 2bff 0fbd e6f3 283e 12b6 923d 40ce e4bc
00000080: 6ddd 953d 2b6f 54bd dda7 cc3c 87cd d6bd
00000090: ad6b 943e 25d2 81bd eda5 bebd 96ba fcbc
000000a0: 7bc2 9b3e f23c 543e 6ed8 2a3d 894f 183d
000000b0: 4231 85bd 86ec 4e3e 5d42 55bd 0db5 89bd
000000c0: 6778 c3bd f0d7 bdbd b8de 8dbd f73e bbbd
000000d0: 7d1a 9ebd c362 97bc d6cf 673e f9aa 74bd
000000e0: 874d 59bd 58a2 a6bc fe38 503e f924 cbbd
000000f0: 0d13 e4bd 5a80 dfbc 12f8 af3d 5312 123e
